MyFallDetectionAppLiteRTPro/app/src/main/assets/fall_time2vec_transformer.tflite (tflite, 457924 bytes, 42 tensors)

arith.constant f4 [2, 64]
00000000: d4ed 23ba 1bd7 8c39 2bcc f639 f10d fb39
00000010: 1881 82ba 8fe9 05ba 8bc4 713a cb1c 7cb7
00000020: e2b9 8eba 5e7a 48ba b543 013a 6c47 0aba
00000030: c848 93b9 a521 dab9 d917 2436 eaa8 e1b8
00000040: f239 de39 1737 2bba 2f03 ca39 20a2 f238
00000050: f223 6538 e974 5ab8 a981 883a 0198 fdb8
00000060: ec51 453a 4903 6439 8592 2c3a 45c0 583a
00000070: 9899 80ba b55c 6a3a 8153 b2b9 6800 9d3a
00000080: fa3f 3eb9 8c5e c1ba c709 22ba be5a 42ba
00000090: c566 25ba 2941 b4b9 2872 e33a e32c d2b9
000000a0: 47aa a939 acc5 4fba 92fa 8d3a e220 1a3a
000000b0: 32eb 9db9 6974 79b9 c138 45ba 5a00 283a
000000c0: 013a 343a 4fa3 8f3a 99ff 40ba 94f2 02ba
000000d0: 7595 463a abbb 3ab9 a475 3c3a 9e97 1039
000000e0: 7757 8338 d7e2 c3b9 c66a 1238 e188 fbb9
000000f0: 234a abb9 88ff db39 88f5 74ba 07ec 05ba
00000100: 4961 563a ed2f 3eb9 fb61 c1b7 24fd 5c39
00000110: 45e9 8f3a 69a2 89b9 8231 6b3a 2479 99b9
00000120: 8a64 f439 ae02 02b9 d641 0d3a b9a5 6b37
00000130: d09e f739 1d70 3639 789e 8637 d6cd 89ba
00000140: c836 563a 8722 c938 1672 973a 9269 97b9
00000150: 23aa 013a 684e 15ba f34f 55ba 9867 e8b8
00000160: e8bd 163a ee32 67ba e578 ad39 e5f4 4d3a
00000170: 1d43 b5b9 7e1f 09b9 0689 23ba 3349 15ba
00000180: b012 8d3a 1054 ca3a 5326 35ba 1895 9b3a
00000190: ca03 83ba 621d 8eba c6d9 baba 4cef 513a
000001a0: 4b89 50ba b8be 4bba bd4b 23b9 44d4 6438
000001b0: d823 a238 f5bf 12ba 6ddb e638 17bf ba39
000001c0: eec9 00ba 46cc 3c39 5554 3e3a b7de 90b8
000001d0: 0b43 78ba 36b0 4a37 342c e4b9 58ff 64ba
000001e0: d312 bd39 ce87 2eba 9855 0439 0aaf 5d38
000001f0: 5d30 9638 a40e 5739 0d90 563a cf2c 0637
-0.00062533957 0.00026863147 0.00047072893 0.00047884838 -0.0009956686 -0.00051083503 0.00092227076 -1.5027074e-05
-0.0010889138 -0.00076476287 0.00049310486 -0.0005274925 -0.0002809225 -0.00041605267 2.4451786e-06 -0.00010760299
0.00042386312 -0.00065313414 0.00038530814 0.00011569657 5.463133e-05 -5.208413e-05 0.0010414618 -0.00012092293
0.0007527161 0.00021744998 0.00065831124 0.00082683965 -0.00098114 0.0008940206 -0.0003401302 0.001197827
-0.00018143645 -0.0014752909 -0.00061812665 -0.00074140343 -0.00063095643 -0.00034380823 0.0017352747 -0.00040087765
0.00032361058 -0.0007925879 0.0010832122 0.0005879534 -0.00030120608 -0.00023789857 -0.00075234106 0.0006408744
0.00068750983 0.0010958704 -0.0007362306 -0.00049952534 0.00075753714 -0.00017808254 0.00071891607 0.00013789392
6.2628584e-05 -0.00037362307 3.4908553e-05 -0.00047976433 -0.00032670898 0.0004196132 -0.00093444483 -0.0005108718
0.0008177949 -0.00018137666 -2.3053019e-05 0.00021075137 0.0010979554 -0.0002625168 0.0008971916 -0.0002927269
0.00046614214 -0.00012398764 0.00053885335 1.4045677e-05 0.00047229836 0.00017398638 1.6047838e-05 -0.0010513614
0.0008171615 9.590858e-05 0.0011554386 -0.0002887962 0.0004946312 -0.00056955824 -0.00081372185 -0.00011081918
0.0005750344 -0.000881954 0.00033087205 0.00078566215 -0.00034573014 -0.0001307707 -0.00062383746 -0.00056948065
0.0010763016 0.001543643 -0.0006910313 0.0011869995 -0.0009995636 -0.0010842497 -0.0014255575 0.00080083753
-0.00079550286 -0.0007772255 -0.00015573106 5.4557124e-05 7.7314384e-05 -0.0005598062 0.00011008126 0.00035619058
-0.00049129024 0.00018005175 0.0007260491 -6.907939e-05 -0.00094704394 1.2081166e-05 -0.00043520483 -0.0008735559
0.00036062914 -0.000665781 0.00012620387 5.2853524e-05 7.161566e-05 0.00020509452 0.00081849174 7.997455e-06

arith.constant1 f4 [2]
00000000: d77b 6b3c 212d f53d
0.014372787 0.11971498

arith.constant2 f4 [64]
00000000: d9be 6abd 99d7 06bd cb53 263b 3cb8 33bd
00000010: 733f 8ebd f973 003d 4c38 a0bc 10c3 48bc
00000020: df66 8bbd 7013 debd 417e 80bc 0fa0 dabc
00000030: c529 d63b 060c 7e3d 34f8 aeba a287 0abc
00000040: 3c86 273d 50eb 943d 8f51 67bc 7b21 e93a
00000050: 9231 363d 9caa a03c bf76 98bd 5376 a5bb
00000060: 900d 29bd 145e 943b b905 49bb d9c2 a4bd
00000070: 3c89 c23c 1fd6 91bd 3e2b eabb f1b4 143c
00000080: 52bd fe3c bbe1 33bc 7859 20bd 0b8e 93bd
00000090: b1c7 6f3d fddf 24bd c87c abbd 0ac7 833d
000000a0: ac00 1cbd fc35 813c 8ca0 3e3d 88ab 013d
000000b0: 84d7 c6bc be29 0fb7 10af 343d 642c 4f3d
000000c0: 3c15 c83b e334 1fbd 8a87 543d 8f62 923d
000000d0: 973a 403d 1983 0abe 4382 54bd 556d 8cbd
000000e0: bf67 12bd 11f9 793c 375a 293d 65be 823b
000000f0: 860d e7bc 18d3 0e3d c615 403d f0bd 373d
-0.057310913 -0.032920454 0.0025379534 -0.04387687 -0.06945696 0.0313606 -0.019558094 -0.012253538
-0.068067305 -0.10843551 -0.015685203 -0.02668765 0.006535741 0.062023185 -0.0013349117 -0.008455189
0.0408995 0.07271445 -0.014118566 0.0017786467 0.044480868 0.019612603 -0.07444524 -0.0050495057
-0.0412727 0.0045278165 -0.0030673577 -0.08044977 0.02374708 -0.071209185 -0.007146268 0.009076343
0.031096134 -0.010979111 -0.039147824 -0.07204827 0.05854005 -0.040252674 -0.083734095 0.06434448
-0.03808658 0.015772812 0.04653983 0.031657726 -0.024272688 -8.533183e-06 0.044112265 0.050579444
0.006106047 -0.038868796 0.051887073 0.07147705 0.046930876 -0.13526572 -0.05188204 -0.06856791
-0.03574347 0.015257136 0.0413458 0.003989982 -0.02820469 0.034869283 0.046895765 0.044858873

arith.constant3 f4 [64]
00000000: cc26 463c d3f8 a03b 82a7 c5bb 87de 423c
00000010: 0d6a d738 1e7c a3bb b332 86bc 68d5 be3b
00000020: 376b 2dba fda8 2ebd 832f 053c 0286 1e3d
00000030: 17ac be3b 7dc7 03bc ac43 fb3b 579f 06bb
00000040: fb42 a63c 3150 f43b 72e3 bbbb 5942 14bd
00000050: c251 41bc 1ef3 1fbb c2d4 083c 3497 a4bb
00000060: 5ece 01bd 14b9 613c b668 0dbc 0056 9abc
00000070: 0a2f 16bb 86d0 9ebb d2a7 c5bc bf77 183b
00000080: bd7e 313c 6137 033b dc6e 99bc 417e fd3b
00000090: b17a 713c 01bb 243c ffb0 593b 50f9 c03b
000000a0: d2c9 47bc 6b23 25bc b5cd 97bb 7b18 8fbc
000000b0: 660a c8bb ba8a 02bd 4043 7c39 060a 3f3c
000000c0: 5e0d 253c c9ed 893c 9d05 1dbb 23dd d6bb
000000d0: d1e8 563b 6095 36bd 33f2 9d3c 9a11 8abb
000000e0: 0cc0 34bc d8f1 193b c75d 5c3c b4dc 1bbc
000000f0: c43d 0bbb d8ac 803d bc3d 57bc 4067 1cbc
0.012094211 0.0049124747 -0.0060319314 0.011893875 0.000102717524 -0.004989161 -0.016381597 0.00582378
-0.00066154025 -0.04264163 0.008129003 0.03870202 0.0058188546 -0.008043167 0.007667979 -0.0020541751
0.02029561 0.0074558486 -0.0057339007 -0.036196087 -0.011799278 -0.0024406384 0.008351507 -0.0050229076
-0.031690948 0.013777036 -0.008630922 -0.018839836 -0.002291622 -0.0048466353 -0.024127875 0.0023264734
0.010833439 0.0020022022 -0.01872962 0.007735998 0.014738725 0.010054351 0.003321707 0.0058890954
-0.012194114 -0.010079245 -0.0046326765 -0.017467728 -0.006104755 -0.03187058 0.00024057645 0.011660105
0.010073988 0.016837018 -0.0023959645 -0.0065571233 0.0032792578 -0.04457605 0.019280529 -0.004213524
-0.011032116 0.0023490097 0.013450093 -0.009513069 -0.0021246532 0.06282967 -0.013137277 -0.009546101

arith.constant4 f4 [192, 64]
00000000: fe6a debc 36b1 b63b 9084 94bc 8454 8dbc
00000010: e1f9 e8bb f214 833b 471e 093b 9746 0a3b
00000020: e20b fb3c bb2f 5d3d 1329 973a 9f66 e8bc
00000030: e6b1 41bb f5cc 433b 6298 823b 9f65 a8bc
00000040: 3892 503c 65f1 bebc d923 7c3c 595b 873d
00000050: af87 783c 77f3 dabb 21b9 dabc 437f 253c
00000060: 8c16 15bc cb21 67bc ab75 f83b f437 d13b
00000070: aa71 07bb 4b80 53bc 41a3 463d 0cb6 d4bb
00000080: 2144 8a3c ac0e 593c 9761 8c3a a690 f03b
00000090: b032 71bc fab8 203c 0ab0 823c 08a6 f9bb
000000a0: 57a0 71bc e8b7 bbbc 54e3 75bc fd0c 583a
000000b0: 06de 403d 1dfe 0abb bff8 1fbc 6e5e 49bb
000000c0: 7217 183d 9091 253b 4c0e 303c 16d7 ce3a
000000d0: 049b a6bc 9c5f eb3c 384f 51bc 4049 b6bc
000000e0: 7804 47bb 561b 82bb 3366 a9bc 7aae 02bd
000000f0: 12e6 c13a bbbd 99bc 1428 603c e240 39bb
00000100: fc36 2c3a bb93 54b9 d241 fd39 7067 b0b9
00000110: c65b b338 e8f1 9938 2289 9e39 2b26 843a
00000120: 1e44 9bba 1909 a2ba 4a31 4cb9 baf4 33ba
00000130: f8e3 d037 68af 6f39 b199 a0b8 bfc3 703a
00000140: d911 5f39 71e8 733a 2e4a 1739 286f bf39
00000150: b211 f1b9 7f10 dcb9 23d5 a638 8c67 223a
00000160: c93e 3a3a b96f f2b9 37cb 3237 552d 4ab9
00000170: 6107 4fb9 c283 0039 bacc 53ba f894 15ba
00000180: f060 0aba 34df f53a 0c72 0c3a 836a c2ba
00000190: 71a3 b6b9 2639 b2ba c98c 103a f604 5f3a
000001a0: e2b4 2c3a e4b3 3739 eb20 cfba f895 3e3a
000001b0: 3fbb 70b8 26d8 1c3a 398a 9738 e315 fa39
000001c0: e6ad 0d3a 0485 6ab8 6727 97b9 9292 d3b9
000001d0: ab17 5c3a 5ab7 0339 3b7b c8ba 23c2 433a
000001e0: 4b27 47b9 5a90 edb8 d5b0 05ba 21c6 b039
000001f0: c538 1239 4ac9 c4ba 7f22 5a3a ae60 42b9
00000200: db7f 0f3a 74d0 fab8 5e7e ae39 a6df c7b9
00000210: 58fe ab39 3250 6d38 4624 bb39 cfc7 483a
00000220: 155d d3b9 b09a ae39 2596 7d38 a405 08ba
00000230: 3ca9 0039 8dda dc38 c814 8739 b53b d839
00000240: b805 b539 5baa 133a cc68 b638 a826 9ebb
00000250: 1aa0 0cba 1e75 0fba a420 eb38 52ee 333a
00000260: c872 0539 c7e6 06ba 95d1 b038 11e8 ce38
00000270: 0103 9bb9 23a5 bfb6 ae82 8f3a 99f9 72ba
00000280: 48d7 9139 d0fa b33a af68 7439 adf1 25ba
00000290: e3a0 2637 6c50 14ba 7ae2 acb9 5f4d a73a
000002a0: 15cd 6539 f379 5bb9 4d8b 7dba 0859 bf38
000002b0: 7468 723a 3499 b239 d203 06b9 59bc d839
000002c0: 8abb 423a ea07 64b8 ef04 7cb9 e29c 88b9
000002d0: e2ef a8b9 008e 68ba 0c0a 86b9 9bbc a739
000002e0: fb9b 45b9 c508 88b8 a556 fcb9 c71e b6b9
000002f0: 2df6 b2b8 0341 34ba b6dd 3f3a 93c4 61b9
00000300: a5e5 0f3d 90ee cfbb 995c 763c 37e8 fd3b
00000310: ce57 f73b 38d9 88bb 4e53 99b8 80fe 173b
00000320: 1252 85bc fee8 29bd 59b0 e0ba e186 fb3c
00000330: 120d 4b3b 98c8 76bb b70a 9c3a 1fa8 813c
00000340: 0772 87bc 418d 2d3d 3c00 2fbc f82a 81bd
00000350: e4db 8dbc 16eb fa3b 4451 0a3d 272b 14bc
00000360: f84a e5bb 35fe 2a3c 8c6a d4bb ff58 c5bb
00000370: bddb 9a3b 4266 493c 234f 24bd f055 a3ba
00000380: 0f7a 5cbc 74ce a0b9 488e a9bb 148e 05bc
00000390: 2af6 bc3c 23a4 c4bc 2053 97bc f08c 733c
000003a0: 487a a53c 5b7c d93c a40a b8ba e439 f53b
000003b0: 8d92 65bd 4503 993a f8bc 723c 9e79 0e3c
000003c0: f6e8 11bd 627b a2bb 0b83 32bc fa78 1fba
000003d0: a0af 443b 3dca 44bd 7d54 223b 1680 a53c
000003e0: f866 a43b 8d50 dd3b f809 be3c 0acb 1b3d
000003f0: 0d33 c93a f0c4 d63c 579b 52bc a5cd 003a
-0.027150627 0.0055753244 -0.018129617 -0.017252214 -0.007109866 0.0040002996 0.0020922588 0.0021099204
0.030645315 0.054000597 0.0011532627 -0.028369246 -0.0029555499 0.0029876803 0.0039854506 -0.02055627
0.012730174 -0.023308465 0.015389406 0.0660922 0.015169068 -0.0066818553 -0.026699604 0.010101142
-0.009099614 -0.014107178 0.0075823865 0.006384844 -0.0020667114 -0.012909005 0.048495535 -0.0064914282
0.01687819 0.013248127 0.0010710236 0.007341462 -0.0147215575 0.009809727 0.015953083 -0.0076186694
-0.014747701 -0.022914842 -0.0150078125 0.00082416815 0.047086738 -0.0021208592 -0.0097638955 -0.003072645
0.037131734 0.0025263764 0.010745596 0.0015780653 -0.02033759 0.028732114 -0.012775235 -0.022251725
-0.0030367654 -0.003970544 -0.020678615 -0.031904675 0.0014793298 -0.018767228 0.01368143 -0.0028267433
0.00065694726 -0.0002027293 0.0004830496 -0.00033646403 8.552479e-05 7.340667e-05 0.0003023828 0.0010082176
-0.0011845862 -0.001236233 -0.00019473318 -0.0006864775 2.4901688e-05 0.0002285816 -7.658022e-05 0.0009184442
0.00021273586 0.0009304351 0.00014428116 0.00036513177 -0.00045980286 -0.0004197396 7.9551966e-05 0.0006195239
0.00071046926 -0.00046241077 1.0656941e-05 -0.00019281109 -0.00019743807 0.00012256115 -0.0008079518 -0.0005706097
-0.0005278727 0.0018758536 0.00053575705 -0.0014832768 -0.00034835518 -0.0013597354 0.00055141427 0.0008507514
0.0006588233 0.00017519254 -0.0015802657 0.0007270272 -5.7394845e-05 0.00059831364 7.225987e-05 0.00047700023
0.0005404636 -5.5913828e-05 -0.0002883032 -0.0004035426 0.0008395861 0.00012561437 -0.0015295515 0.00074675883
-0.00018992757 -0.00011327928 -0.00050998974 0.00033716953 0.00013944793 -0.0015013602 0.00083211804 -0.00018537298
0.0005474069 -0.000119597564 0.00033282017 -0.0003812287 0.00032805162 5.657989e-05 0.00035694445 0.00076591683
-0.00040314408 0.00033303117 6.0459734e-05 -0.0005188829 0.00012270076 0.00010531126 0.0002576469 0.00041243216
0.0003452727 0.000563299 8.697956e-05 -0.0048263855 -0.0005364433 -0.0005472469 0.00011211753 0.00068638206
0.00012726628 -0.0005146083 8.431372e-05 9.866071e-05 -0.00029566142 -5.711468e-06 0.001094898 -0.00092687603
0.00027816952 0.0013731364 0.00023308651 -0.0006330263 9.93183e-06 -0.0005657736 -0.00032975135 0.0012764147
0.00021915541 -0.00020930897 -0.00096719415 9.124173e-05 0.0009247132 0.0003406495 -0.00012780659 0.0004133906
0.0007428458 -5.4366807e-05 -0.0002403443 -0.00026056828 -0.00032222184 -0.00088712573 -0.00025565957 0.00031993244
-0.00018845491 -6.486619e-05 -0.0004812974 -0.00034736676 -8.533555e-05 -0.00068761426 0.0007319109 -0.00021530902
0.035131115 -0.0063455775 0.015036725 0.0077486294 0.007548309 -0.004176285 -7.311125e-05 0.0023192465
-0.016274486 -0.041481964 -0.00171424 0.030703964 0.0030983132 -0.0037656184 0.0011905049 0.015827237
-0.016533865 0.04237104 -0.010681208 -0.06307024 -0.017316766 0.007657419 0.033768907 -0.009043491
-0.0069974624 0.010436584 -0.006482428 -0.006022572 0.004725902 0.012292447 -0.040114533 -0.0012461524
-0.013456835 -0.00030671398 -0.005174432 -0.00815155 0.023066599 -0.024004048 -0.018472254 0.014865145
0.02019991 0.026548555 -0.0014041257 0.0074837077 -0.056047965 0.0011673948 0.0148155615 0.008695988
-0.03562256 -0.004958556 -0.010895501 -0.00060833956 0.0030011907 -0.048044432 0.0024769597 0.020202678
0.0050171576 0.006753987 0.023198113 0.03803543 0.0015350297 0.026216954 -0.012854419 0.0004913456

arith.constant5 f4 [192]
00000000: 1a3e 36bd b448 16ba b342 9539 88de 343d
00000010: 3219 e0b8 c3cc 893d 6189 8639 e629 0c3d
00000020: 91f7 2e3d ebdf c8bc 2eec 93ba 15e5 d7b9
00000030: 8eb2 c23c e805 633d acc1 92ba f99c 76bc
00000040: 735a cb3c 31aa 7b3c d44f 473d a351 45bd
00000050: 49f9 3f3c f2d2 993d b6d9 61bc a827 1cbd
00000060: 5573 3f3c 5e57 bbbc 2c38 81bc 4f57 dcbc
00000070: bf67 65bd fa5b e0bc 3364 72bc 05d1 a6bd
00000080: dfc3 723d 09b9 3e3d c859 0b3b e5f0 78bd
00000090: b2f3 88bd 2cc3 453c dba7 1bbd 92e6 c9bc
000000a0: d5c0 e7ba 150e bbba 31d8 bfbc cd65 7cbd
000000b0: b146 ad3c a19c 6f38 c963 753b 8aa9 1c3b
000000c0: cf56 8c3d 82db 983b 7440 133d 530f da3c
000000d0: e2c5 0cbd 00ee e9bc 3a4e 9dbc 1108 8d3d
000000e0: 49ac f6bc 36ec 133e d387 dcbd bd97 9c3d
000000f0: 1b01 8e3d b3d8 d23a d3e7 aabd a2cb 26bd
00000100: ee30 333b 5cdd efb8 427a e2b7 f106 8dbb
00000110: 4587 0bb8 ed18 d3bb ebe9 c8b7 890d b6ba
00000120: 6533 56bb 0e60 173a 0377 35b9 2800 af38
00000130: 3f85 2aba 6365 ecbb f52b ce39 f4ce d939
00000140: 3e35 82bc 3dcb 12ba 016e d3bb c2ea b93b
00000150: 3682 1cbc efb0 bfbb 8377 af3b 0f92 c93b
00000160: 79d6 eebb 9451 683b 418d 013b 8828 213c
00000170: b0f4 313c 3561 853b 9429 253c cde5 083c
00000180: 640c 6f3c 7dda ff3b ab49 92b8 dc58 7bbc
00000190: f9ec 25bc 81dd f43a 4182 0abc ab7f 83bb
000001a0: b487 6ab8 b82d d0b7 4f8a bebb 8a2b 2ebc
000001b0: c045 673b 52be f9b8 eeae e6b7 e32b e4b8
000001c0: d290 8f3b 8294 e03a 6e56 9dbb 44b8 a83b
000001d0: 5d9a 1d3b e8ee 12bb 91fe 4bbc 36b6 11bc
000001e0: 43b7 613b 43f8 2bbc 5cc1 9a3b 212c fbbb
000001f0: cd55 40ba 4268 5b3b eee8 483c af45 b1bb
00000200: 4b32 1ebd 9ef1 8038 66f8 703c 536a b1bb
00000210: e133 83bc cdd8 003d 6420 e43b 4919 943b
00000220: 2407 bb3b c4be 7f3b 6d10 f4bb f097 a8bc
00000230: 88ce 91bc 0619 903b 26ce 713c a949 56bc
00000240: ec15 c53c b135 c53c 765a c0bc 66d4 223b
00000250: 6ce2 ee3a ea3d a6bb 791b b1bc f0c3 dbbc
00000260: fce1 c63c 62bb bfbc 4e20 adbc 8bd4 a03b
00000270: 764b 5c3c ec7a 9cba d825 af3c 978f af3c
00000280: c2cb 1dbc 3e6d 27bc f448 213c ecc4 dc3c
00000290: 3cb4 d3bc 89ba 053c f85e 4fbb cc4b d53b
000002a0: 7f04 e7bc 4ac1 4dbc 079c 273c ff8a 5d37
000002b0: 9b35 60bc bda0 08bc fbe8 3bbb 9e95 463c
000002c0: 0a97 36bc cf8f 59bc 70e3 2e3c 8ea4 26bc
000002d0: 7d01 94bc 9e23 a4bb c961 a2bb 69bd 063a
000002e0: 1708 f5bc 7213 1e3d 85e7 393b a2fc bd3b
000002f0: e54c 9d3c 46a5 92bc a0a8 9c3c 917f 2fba
-0.04449282 -0.00057328795 0.0002846919 0.044157535 -0.00010685845 0.06728508 0.00025660827 0.034219645
0.042716566 -0.024520835 -0.0011285597 -0.00041178675 0.023766782 0.055425555 -0.0011196635 -0.015052074
0.024823403 0.015360401 0.048660114 -0.048173558 0.011717149 0.07510938 -0.0137848165 -0.038123757
0.011685212 -0.022868808 -0.015773855 -0.0268971 -0.056007143 -0.027387608 -0.014794397 -0.08145336
0.05926883 0.046563182 0.002126323 -0.06077661 -0.06687106 0.012070458 -0.038001876 -0.024646077
-0.001768137 -0.0014271165 -0.023418518 -0.061620522 0.021151872 5.7127912e-05 0.003744351 0.0023904764
0.06852495 0.0046648392 0.03595014 0.026618635 -0.034368403 -0.02855587 -0.01920234 0.06886304
-0.030111449 0.14445576 -0.10768094 0.07646129 0.069338046 0.001608631 -0.08344998 -0.040721543
0.0027342397 -0.000114376395 -2.699823e-05 -0.004303806 -3.3266162e-05 -0.0064421804 -2.3950784e-05 -0.0013889532
-0.0032684442 0.0005774506 -0.0001730584 8.3446794e-05 -0.00065048406 -0.0072142347 0.00039324132 0.00041543657
-0.015894528 -0.0005599743 -0.0064523225 0.0056737373 -0.009552529 -0.0058499495 0.005354823 0.0061514447
-0.0072887507 0.0035449015 0.0019768032 0.009836324 0.010861561 0.004070426 0.010080714 0.00835557
0.0145903565 0.0078080283 -6.975544e-05 -0.01534101 -0.010127299 0.0018681736 -0.0084539065 -0.004013022
-5.591633e-05 -2.4816822e-05 -0.0058148275 -0.010630498 0.0035289377 -0.00011908695 -2.7499595e-05 -0.00010880062
0.0043812776 0.0017134103 -0.004801563 0.0051489193 0.0024048307 -0.0022420231 -0.01245083 -0.00889354
0.0034441508 -0.010496202 0.0047227573 -0.0076651727 -0.0007337004 0.003347889 0.012262566 -0.0054099183
-0.03862218 6.14852e-05 0.01470766 -0.005414286 -0.016015949 0.031456757 0.006961869 0.004519616
0.0057076383 0.0039023617 -0.007448247 -0.020580262 -0.017798677 0.0043975143 0.014758622 -0.013079085
0.024058305 0.024073454 -0.023480635 0.0024845838 0.0018225438 -0.0050732987 -0.021619545 -0.026826829
0.02427768 -0.02340478 -0.021133568 0.0049081496 0.013445726 -0.0011938489 0.02138035 0.021430774
-0.009631099 -0.010218916 0.009844054 0.026949368 -0.025842778 0.008162149 -0.00316423 0.00650928
-0.028200386 -0.012558291 0.010230071 1.3204989e-05 -0.013684656 -0.008339104 -0.0028672803 0.012120632
-0.011144409 -0.013278916 0.0106743425 -0.010171069 -0.018067116 -0.0050091287 -0.0049555046 0.00051399186
-0.029911084 0.038592763 0.0028366756 0.0057979384 0.019201705 -0.017901074 0.019123375 -0.0006694729

arith.constant6 f4 [64]
00000000: 71e6 71bd 27b8 09bd 166f 393c f34d 57bd
00000010: 68c6 96bd 0cc2 8e3c 66f5 1bb9 da84 01bd
00000020: f850 98bd 6f01 8fbd 3236 82bc b361 d2bc
00000030: 251e 303c 4e84 143d b384 80bc 8630 06bc
00000040: 3add 943c 6055 993d 7a7c ccbb b6b2 9f3b
00000050: aeae eb3c e8ee 9e3c ad8e 77bd 55ee 43bc
00000060: 973e ec39 d0ce e4ba c28f 1ebc 2c89 34bd
00000070: b3c3 c73c 7ae4 66bd 7200 cc3c 15d5 483c
00000080: 9ce3 c73c 25ae 64bc 5877 98bc 1508 8dbd
00000090: 90eb 253d 5ff7 40bd 5fcd a9bd f764 4c3d
000000a0: e223 89bc f6bd 1d3d 5e1a 153d 786b 1f3d
000000b0: 4c9a dabc eec8 793c 757e 043d b03a 023d
000000c0: 31f7 68bb f309 3cbd 1411 3a3d dea3 583d
000000d0: bb9c 753d adef abbd e38a 5cbd 578e 8abd
000000e0: 583f b5bc 1b19 ea3c 14bb 043d 494d 1e3c
000000f0: d8e3 9bbc ec6e af3c c048 fd3c 78de 743d
-0.059057657 -0.033622887 0.011317989 -0.052564573 -0.07362062 0.017426513 -0.0001487337 -0.031620838
-0.074373186 -0.06982695 -0.015894983 -0.025681352 0.0107493745 0.036258988 -0.015688276 -0.00819028
0.018171895 0.07486987 -0.0062404247 0.004873599 0.028769817 0.019401029 -0.0604388 -0.011958678
0.0004506006 -0.0017456654 -0.009677829 -0.04407613 0.024385309 -0.056370236 0.024902556 0.012257834
0.024400525 -0.013957535 -0.018611595 -0.06886307 0.040507853 -0.04711091 -0.082911246 0.049900975
-0.016740743 0.03851124 0.0364021 0.03892085 -0.026684903 0.015245659 0.03234716 0.03179425
-0.0035547728 -0.045907926 0.045426443 0.05289065 0.059963923 -0.08395324 -0.05384339 -0.067654304
-0.022124931 0.028576424 0.032404974 0.009661981 -0.019029543 0.021415196 0.030918479 0.059782475

arith.constant7 f4 [64]
00000000: 5afd 583b eda6 d4bb 7e1d e63b d9a1 943c
00000010: 2129 d338 5e93 5ebc 317e 02bc c322 f9bb
00000020: 4777 d73b cb48 8fbc e899 c53b ffd1 213d
00000030: ee87 de3b 9bfd 35bc 86d5 583c f4d2 8e3a
00000040: 5654 67bc 39bb 8a3c 569b 2d3c d53e 43bc
00000050: be67 87bc 1a49 8f3b d1f7 143c e6a5 86bc
00000060: 41b6 c7bb 1828 05ba 8ad5 9fbc 7dcb 933c
00000070: 94c9 963b 02e6 273c 124a 533b a4d6 0cba
00000080: cfaf 433c 8287 fa3b b5b3 d93b 6a54 183c
00000090: d48f 58bb ea72 98bc 1ef6 d0bb 65c6 c93b
000000a0: e1bd 7ebc d04e a6bb 31bc 61bc 23f2 01bc
000000b0: 2ae6 f23b 906e 433b 5416 33bb 9b42 703b
000000c0: 27fd 86bc fa0a 1bbb 33ea 123b 8877 86bb
000000d0: 4da0 a63b a08d 8ebc 0ea5 ab3c c38c 8d3a
000000e0: 7a67 893b 7ace bf3b 7fa3 923c 5c77 ec3b
000000f0: 13a0 29bc 66b3 2e3d 8dcf fdbc 5da1 2e3c
0.0033109994 -0.0064896257 0.0070225587 0.018143581 0.00010068925 -0.01358494 -0.007964657 -0.007603021
0.0065754983 -0.017490765 0.00603031 0.03950691 0.0067911064 -0.011107828 0.013234502 0.0010896609
-0.014119228 0.016934978 0.010596117 -0.011916836 -0.01652896 0.004372728 0.009092287 -0.016436528
-0.0060947244 -0.0005079522 -0.019511003 0.018041367 0.0046016667 0.010247709 0.0032240194 -0.000537256
0.0119437715 0.0076455483 0.006643737 0.00929747 -0.0033044713 -0.018609483 -0.0063769957 0.0061576837
-0.0155482 -0.005075313 -0.0137777785 -0.007931265 0.0074126916 0.002982054 -0.002732654 0.0036660794
-0.016478134 -0.0023657666 0.0022417426 -0.0041036047 0.0050850273 -0.017401516 0.020952728 0.0010799397
0.0041932436 0.0058534713 0.017900227 0.007216377 -0.010353106 0.042651556 -0.030982757 0.010658589

arith.constant8 f4 [192, 64]
00000000: c2ca 2f3d eef8 a13c 46a2 763d b15d ff3b
00000010: 36b0 1dbd 30f8 983c 650d 563d 726f 393d
00000020: f2b7 01bd 9395 0c3c b30d cbbc 728d dfbd
00000030: 1691 7cbd 4615 513c 1a45 7abc 2d02 11bd
00000040: 35f4 1b3d d70d ffbb 3a39 aeba 7751 70bb
00000050: 9d62 023d dec3 463d bc85 e33c cecc 223d
00000060: 18e2 643d 30c7 753d e198 933d e7eb eabc
00000070: 31b0 ae3b a19f 0d3d c993 5bbd c159 15bb
00000080: 9793 b4bb 01d4 cb3c 42ed babd 917f 91bd
00000090: 230c 4fbd 1f0f 33bd 9005 c73d 3c82 81bd
000000a0: 47f8 43bd e67b 9c3c b18d b5bd 1d84 c93d
000000b0: 5183 033e e9af 3bbd 9fdd e83b 6d82 2a3d
000000c0: c1dc 803d ef88 853c e69d 6ebd 069a 27bc
000000d0: 463b e6b9 438a e8bd d861 553c 4748 be3d
000000e0: 4433 62bd be1d 93ba 16d9 a93b d74c 493d
000000f0: 8543 373c 12dc c9bc 9ba4 ba3d a2b3 7dbc
00000100: c8d5 713d 008a 3bbc 48f2 62bb 8289 a13b
00000110: 7cd2 ef3c f762 1abc 837f 223b 269d ba3b
00000120: aa1e f2bc bef8 70bd 79e7 8539 2287 7ebc
00000130: 84e8 c3bc f616 d239 ba36 83bb ccae e83c
00000140: 3034 2a3c 9e21 c33c 2573 b83b 716a 3e3c
00000150: 6ad3 fd3b a225 523c 519c 1dbc 6545 49bc
00000160: 06f5 d7bc 3876 153d 963d 303b f73c 10bd
00000170: 0480 083c 9431 f93b f667 6fbd 9f58 02bc
00000180: ac2a b03c be17 47bc 360c 1ebd b93b 21ba
00000190: 9841 463b 4536 353c 5b96 993c 6172 0f3d
000001a0: 56a2 02bd 6dc1 503d 364c 0c3c 7552 7bbb
000001b0: d45a 44bc a2ad edbc 3cbd b23c 4699 833c
000001c0: 54ca 093c 4a10 58bc 6ddb d73a 8fa5 bd3c
000001d0: 67d0 25ba 80ec 79bb a326 423c 400e 143b
000001e0: 6aa9 26bc b4ec 5b3c c493 353c e502 923d
000001f0: d477 c33c de2d 04bc 0dc5 e8bc ebc8 1fbd
00000200: 7289 a4bd ef9d 013d 3422 453c ccdc 243c
00000210: e2ed eabd fbbf 263d 23ee 063d 3df8 b33c
00000220: a1f6 413d 690a 043e ae54 adbb 5d43 a6bd
00000230: b8ea 2f3c 7b77 c1bb a9fc 2d3c dc1a e0bd
00000240: c468 623a 23ec 44bd 894b 32bb e357 c3bc
00000250: e690 47bb 948b 3ebb 658d e03c 017d 143d
00000260: a1b0 653a 7162 29bd feaf 5c3d 209d 833d
00000270: d03b 4f3a 189f 2dbc 5ad5 133e 4a8d 193d
00000280: 8150 2dbd dd40 cbbb 7248 103d 4383 15bd
00000290: 65fc a7bc 15a1 afbb b9d9 0b3d ece2 bdbd
000002a0: 2446 2e3d 98be bfbd a907 c1bd 9691 803d
000002b0: b1b3 a63d 313a c439 6d25 3fbd 81ba bb3b
000002c0: ce70 953d b20e 813d 8793 00bd 1bf2 03bd
000002d0: d097 393c f719 b6bc 56d3 32bd 7916 c33b
000002e0: 6a75 653c aa40 20bc 5673 8bbc 636c 09be
000002f0: 736c 2bbd aaf2 533b 6169 a63d 99f8 2d3d
00000300: a719 f83c e8cb 0dbd 23ec 84bc 8971 83bc
00000310: fad8 193d 1a68 acbc bb4a 81bc 370c f23b
00000320: 9005 e53b d27f 2bbd 5180 053c d89b 173d
00000330: 4249 ccbb fd05 8c37 8769 0a3c 54cf 103d
00000340: a20b 5dbc 1f4f b43c 7f5d 303c 537a b2ba
00000350: a081 5ebc edcc 99bc 9f98 a3ba bc86 e9bb
00000360: 0e1f d2bc 853c 063a ecb7 88bc 33a0 2bbd
00000370: 8389 933c f06a a0bb 1be8 18bd 1870 a2bc
00000380: 8084 09ba ed06 953c 9b71 24bc 4cdb 713c
00000390: 216f ba3c f235 ceba e1ca d0bc 313a 863d
000003a0: 187f 0e3c 247d 1e3d 6ff7 ef3c aad4 86bc
000003b0: 09a7 98bd 8644 4a3c a077 4c3c b281 c23c
000003c0: e3ee c5bc bf91 c4bc 41a2 b33c d8a9 1c3c
000003d0: d392 04bd eba3 6d3c d3af 153c 9d7c f5bb
000003e0: 27ff b53b 0006 fc3b f09c 883b 8db7 3b3d
000003f0: 64bb c13c 7505 54bc d1c9 41bd 0ce6 d6bc
0.042917974 0.01977202 0.06021335 0.0077931513 -0.038498126 0.018673033 0.052258868 0.0452723
-0.031669565 0.008580583 -0.024786806 -0.109156504 -0.061661802 0.01276142 -0.015275264 -0.035402466
0.03807469 -0.0077836323 -0.0013292201 -0.003666965 0.031832326 0.048526637 0.02777373 0.0397461
0.055879682 0.060004413 0.07206894 -0.02867694 0.0053310622 0.034576062 -0.053607736 -0.0022789093
-0.005510758 0.024881365 -0.091272846 -0.071044095 -0.050548684 -0.043715592 0.09717858 -0.06323668
-0.047844198 0.019102048 -0.08864916 0.09839652 0.12843062 -0.045822058 0.0071064974 0.04162829
0.062921055 0.016300647 -0.058256052 -0.010229593 -0.0004391318 -0.11354496 0.013023816 0.092911296
-0.055224672 -0.0011224074 0.0051833494 0.049145546 0.0111855315 -0.02464107 0.09113427 -0.015484722
0.05904177 -0.011446476 -0.0034629274 0.0049297223 0.029275171 -0.009423009 0.0024795241 0.005695003
-0.029555637 -0.05883097 0.00025540197 -0.015535148 -0.023914583 0.00040071429 -0.0040043266 0.028403662
0.010388419 0.02381974 0.0056289607 0.011622057 0.00774615 0.012826355 -0.009619788 -0.012284611
-0.026361953 0.036489695 0.0026892177 -0.03521439 0.008331303 0.007604787 -0.058448754 -0.007955699
0.021504723 -0.012151657 -0.038585864 -0.0006150562 0.00302515 0.011060302 0.018748453 0.03502119
-0.031893097 0.050965715 0.008563092 -0.0038348709 -0.011984546 -0.029013459 0.02181875 0.016064297
0.008410055 -0.013187477 0.0016468592 0.023150234 -0.0006325305 -0.003813535 0.011850032 0.0022591501
-0.010172227 0.013423134 0.011082593 0.07129458 0.02386085 -0.008067576 -0.028414274 -0.03900997
-0.08034028 0.031644758 0.01203208 0.010062408 -0.11471154 0.04071043 0.03294195 0.021968955
0.047354344 0.12894596 -0.0052896356 -0.08118317 0.010737114 -0.0059041358 0.010619321 -0.10942623
0.0008636827 -0.04807676 -0.0027205667 -0.023845619 -0.0030451356 -0.0029074894 0.027411172 0.036252026
0.00087619765 -0.041353647 0.053878777 0.064264536 0.0007905336 -0.010597013 0.14436856 0.03748826
-0.042313103 -0.0062028007 0.03522534 -0.036502134 -0.020506093 -0.0053597786 0.034143183 -0.092717975
0.04254736 -0.09362525 -0.09425289 0.06277768 0.08139742 0.0003742739 -0.04666655 0.00572902
0.072969064 0.06301631 -0.031390693 -0.03221331 0.011327699 -0.022229178 -0.043658577 0.0059536067
0.0140050445 -0.009781042 -0.01702277 -0.13420253 -0.041851472 0.0032340684 0.08125568 0.04247341
0.03028567 -0.03461829 -0.01622588 -0.016045349 0.03756044 -0.021045733 -0.015782705 0.00738671
0.0069891885 -0.041869946 0.008148269 0.03701386 -0.006234319 1.6692089e-05 0.008448011 0.035353974
-0.013491543 0.022010384 0.010764479 -0.0013616778 -0.01358071 -0.018774474 -0.0012481398 -0.0071266573
-0.025649574 0.00051207124 -0.016689263 -0.041900825 0.018009907 -0.0048955604 -0.037330728 -0.019828841
-0.00052458793 0.018191779 -0.010036851 0.014761757 0.022758069 -0.001573263 -0.025487365 0.06554068
0.008697294 0.038693562 0.02929279 -0.016458828 -0.074537344 0.012345439 0.012479693 0.023743484
-0.024161762 -0.023995278 0.021927955 0.009561978 -0.032366585 0.014504413 0.009136158 -0.0074916617
0.005554098 0.007691145 0.004169099 0.045829345 0.023648925 -0.012940754 -0.047311608 -0.026232742

arith.constant9 f4 [192]
00000000: cec7 0d3d 42e9 113d cd65 e6bd c44f 173d
00000010: 28cc a0bc 0d2c 4d3d cac7 92bd 62e2 83bc
00000020: 9ac3 353d 565c 88bd 006e c4bc c371 113d
00000030: 98c5 e23d bf7e 5fbb c4dd 973d d6ba 89bd
00000040: 8193 803d 7648 54bd 80d3 d83d 6542 b2bd
00000050: b88e 9b3d 176e 2a3e fd91 bf3a 1f0b 44bd
00000060: 423e ce3c f58e 5c3c 6edb c83c 15f8 b5bd
00000070: 5698 d3bd da02 8f3d 6e6e 273d e78f 0dbe
00000080: f5e1 28bd d016 203e cd26 f6bb 6c28 94bd
00000090: cdd9 d0bd a101 a53d 7f4a f53c f828 0bbc
000000a0: 8554 ba3c e46f 023c 1c98 0f3d 3c47 7cbd
000000b0: e6ad 5fbc e142 0bbc 6125 9c3d 2a2f c43d
000000c0: 5dd0 8abd cb2b 253d b4d3 a73b 48c5 5dbd
000000d0: c239 0cbd 5aab 9e3d f7d6 843c c69c 8e3d
000000e0: 8e44 c1bd dcc7 80bb c593 90bd 4d99 06bb
000000f0: 5b56 463d d82d 13be be25 8ebd 1bfa 3d3d
00000100: bd27 503c 3d87 e939 4d25 923b c0f7 7b3a
00000110: 6c1b a7ba 81e3 9d38 acaa 4ebc 95ab 5fbb
00000120: 50f4 e53b 7759 27bc f8d8 ecbb 2c27 9b3a
00000130: b756 cb3b 75b6 653a 2a0d 6a3c 1969 ccba
00000140: d76d 5fbc cd9f 69ba 7b1e f0b9 a80c 823c
00000150: 44d7 cf3b eb0e 4eb9 7d97 9fbb 69fe a13b
00000160: 8d19 4dbc 3b02 afbb e694 933c b79c 8bbb
00000170: a45d dc3b f269 e93b 8696 e33b 6b05 bf3b
00000180: f362 613c 6fb8 e43c bc89 813a 81a4 33bc
00000190: 7d72 85bc 1a7f b6bb 918f 26bd 359d 6ebc
000001a0: 0df0 173c e417 2abb 4da5 aebc f785 e5bc
000001b0: f3a7 c63c 0533 88bc 42b0 b0bc 9a46 a4bc
000001c0: 949b aeba d0c3 5b3b deb9 b4bb c269 e4ba
000001d0: e543 243c 54dd 8dba a434 8ebc 6bef 35bc
000001e0: 7fc8 d73b 4589 80bb 46ae 2dbb 4cfd 98bc
000001f0: c3b3 d7bb ffa8 46b9 411d 603c abd9 84bb
00000200: 3376 61bc f626 65bc 8124 d53b 6817 2e3c
00000210: c199 d13b cc8c 443c bb30 b13b 0e77 3c3c
00000220: acb9 bf3a aeb1 a5bc ec9b e6bb bce2 7cbc
00000230: 7eb8 d5bc 9f40 193c 5820 1739 c851 c1bb
00000240: 70d0 b63c 5d86 f93c 8811 91bc d0c4 1d3c
00000250: 868d 5ebc 9954 55bb b207 0eba e7c1 a1bc
00000260: 4114 1f3c 20a7 12bd 67e3 67bc f708 d2bc
00000270: d8ca 46bc d593 413a f6ca 8e3c 91c8 6ebc
00000280: cbea d43c 9bc3 903c a13c 973b 16f5 92bc
00000290: 368c a43c 7546 383d d1ac 133d dac1 93bb
000002a0: 4cdb dd3b d815 ea3c 3313 daba f3a4 fc3b
000002b0: 2bfb 883c 67be 09bb eb22 0e3c 9126 4ebc
000002c0: a983 b53b d928 433c ab88 b93c 548f f9bb
000002d0: 2b09 22bc d405 733c 6938 b2bc 6f5c 8c3a
000002e0: d9c9 adbc d120 c73c ef38 8a3b 2ed7 ce39
000002f0: 16f2 b33b fc71 fb3b a07e 04bc 6802 583c
0.034614377 0.035622843 -0.11249886 0.036941305 -0.0196286 0.05009084 -0.07167013 -0.016099159
0.044375993 -0.06658237 -0.023978233 0.035508882 0.11072844 -0.0034102646 0.07415345 -0.06725089
0.06278134 -0.051826917 0.105872154 -0.0870407 0.07595581 0.16643558 0.0014615651 -0.04786217
0.025176171 0.013461818 0.024518695 -0.088852085 -0.1033179 0.06982966 0.0408768 -0.13824426
-0.041231114 0.15633702 -0.0075119496 -0.07234272 -0.10197792 0.08056951 0.029942749 -0.008493654
0.02274538 0.007961247 0.035057172 -0.061591372 -0.0136523 -0.008499832 0.07624317 0.09579308
-0.067780234 0.040324967 0.0051216725 -0.05414322 -0.03423477 0.077475265 0.016215784 0.06963496
-0.09436904 -0.003930075 -0.07059435 -0.0020538152 0.0484222 -0.14372957 -0.069407925 0.046381097
0.012704787 0.00044541984 0.004460013 0.0009611808 -0.0012749261 7.528719e-05 -0.0126139335 -0.003412937
0.0070176497 -0.010214201 -0.007228013 0.0011837236 0.0062054056 0.0008762845 0.014285365 -0.0015595286
-0.013637028 -0.0008912057 -0.00045799077 0.015875176 0.0063428003 -0.00019651248 -0.0048703537 0.004943658
-0.012518299 -0.005340842 0.018015336 -0.004260625 0.00672503 0.0071232254 0.006945434 0.0058295033
0.0137565015 0.027919976 0.0009882967 -0.010964514 -0.016289944 -0.005569351 -0.04066426 -0.014563848
0.009273541 -0.0025954181 -0.021319056 -0.028017981 0.024250006 -0.01662589 -0.021568421 -0.020053197
-0.0013321512 0.0033533461 -0.005515321 -0.0017426538 0.010025953 -0.0010823407 -0.017359085 -0.011104445
0.0065851803 -0.003922614 -0.002650158 -0.018675469 -0.0065827086 -0.00018945707 0.01367885 -0.0040542684
-0.013761091 -0.01398634 0.0065045957 0.010625698 0.0063965027 0.011996459 0.0054074205 0.011502994
0.0014627478 -0.020226326 -0.0070376303 -0.015434917 -0.02608895 0.009353786 0.00014412531 -0.0058996417
0.022316188 0.030459577 -0.017708555 0.009629443 -0.0135835465 -0.0032551645 -0.0005418017 -0.01974578
0.009709419 -0.035803914 -0.014153338 -0.02563904 -0.012133323 0.00073843944 0.017430764 -0.014574186
0.025990864 0.017671397 0.004615382 -0.017939132 0.020086389 0.044989068 0.036053482 -0.004509193
0.006770527 0.028574869 -0.0016637802 0.007710093 0.016721329 -0.002101803 0.008675317 -0.012582437
0.0055393768 0.011911594 0.022648176 -0.007615963 -0.009889881 0.0148329325 -0.021755414 0.00107087
-0.021214413 0.02430764 0.004218213 0.00039451703 0.0054915054 0.0076735 -0.00808683 0.013184167

arith.constant10 f4 [64]
00000000: 244e a1bd 3c86 64bd 4474 d43c fd23 37bd
00000010: 7045 cbbd 91ac 933c 4d0b c03b e12a 0fbd
00000020: 63d6 7abd f6aa 26bd 587c 80bd f0dd 71bd
00000030: 0208 0dbc 70b6 723d 9ef7 3bbc 9ad2 d6bc
00000040: b45d 34bb 4297 8d3d cbe3 adbb 9f27 2a3d
00000050: cb51 483d e373 a83c 0a09 9abd e2a7 8a3c
00000060: f528 863c 8eee d1bc ab8f d23c fc5a 18bd
00000070: 5541 1b3d 8262 53bd 66f2 533d 5948 793c
00000080: 4acc b53c 9f05 afbb 5192 c83c ece1 9dbd
00000090: f82d 0b3d ba84 8bbd da63 b7bd 61cc fd3c
000000a0: 223e a4bc d1b8 183d 1ff2 e43c f56e 613d
000000b0: e88a b8bb 80a8 f53c 5b9a 1b3d f329 763d
000000c0: e561 ad3c 09bb 8dbd 9b43 643d 08bc 543d
000000d0: 871e 653d aaf6 a7bd 23b0 9cbd ed78 57bd
000000e0: f759 3bbd 2e1f 863c 0557 f5bb 7dd7 2bbd
000000f0: fe35 6cbd b690 0fbd 7430 323d 52f4 4c3c
-0.07876232 -0.05579208 0.025934346 -0.044712055 -0.099253535 0.018026622 0.005860722 -0.034953002
-0.06123961 -0.040690385 -0.06273717 -0.059049547 -0.008607866 0.059256017 -0.011472611 -0.02622347
-0.0027521672 0.06913616 -0.005306696 0.041541692 0.04890613 0.020563072 -0.07521255 0.016925756
0.016376952 -0.025626447 0.025703272 -0.037196144 0.037904102 -0.051607616 0.05174484 0.015215003
0.02219214 -0.0053412463 0.024483832 -0.07709107 0.033979386 -0.06812425 -0.08954592 0.030981245
-0.020049158 0.03728563 0.027947484 0.055037457 -0.0056317933 0.029987574 0.037989 0.0600986
0.021164844 -0.0692044 0.055728536 0.051937133 0.055937316 -0.08201344 -0.07650783 -0.05260556
-0.045740094 0.01637229 -0.00748718 -0.041953553 -0.05766868 -0.035050116 0.04350324 0.012509422

arith.constant11 f4 [64]
00000000: 48b4 843c eb1a 203d f79f 4e3d 5237 8d3d
00000010: 591b 0cbd b321 4a3a 8830 193d 9d4c c53c
00000020: b591 12bd a18c 31bd 1268 dabc 34aa 17bd
00000030: 3dc6 75bd e9d7 cd3b f5cf 01bd 872e 583d
00000040: 507c e43c 493d 5ebd 66ff 8dbd 38b7 dabc
00000050: df2a 673c 61d7 2e3d 51d5 0d3d 0c77 1abd
00000060: c6ce 123d e198 ed3c 6ed7 cf3c f762 13bd
00000070: c7f2 ec3c 0013 173d 1017 23bd b879 b63c
00000080: 3225 3dbc 82a5 57bd da40 27bc efff 11bd
00000090: 3e01 95bc 831a ca3c dade 543d 6b06 08bd
000000a0: 5862 e7bc dfa6 0a3c eb9f d63b 0d11 c73c
000000b0: f6e9 0ebc a5ef 33bd 00bb 2cbd c685 b03c
000000c0: 83e1 953d e892 e03c ad2d 0cbd 42f9 ca3b
000000d0: 070c 043d 50f0 d2bc 871d b43c b47c 053d
000000e0: d4c2 edbc 2ce6 6a3c 15a8 443c 78d2 1d3b
000000f0: 7bd5 273b 0930 543c cf3d 9b3c aa5e 43bc
0.016199246 0.03908817 0.050445523 0.06895317 -0.03420577 0.000771071 0.0373998 0.024084384
-0.03578349 -0.043347005 -0.026660953 -0.037027553 -0.060003508 0.006281842 -0.031692464 0.052778747
0.027891308 -0.054257665 -0.06933479 -0.026698694 0.014109342 0.04268587 0.034627263 -0.03771119
0.035841726 0.029003562 0.02537128 -0.035983052 0.028924359 0.036883354 -0.039816916 0.022274837
-0.011544513 -0.052648075 -0.010208333 -0.035644468 -0.018189069 0.024670845 0.05197034 -0.033209246
-0.028245136 0.008462637 0.0065498254 0.024300123 -0.008722773 -0.043929715 -0.042170525 0.021548163
0.073184036 0.0274138 -0.034223247 0.0061942646 0.032238033 -0.025749356 0.021986736 0.03258963
-0.029023565 0.014337104 0.0120029645 0.0024081748 0.0025609422 0.012950906 0.018950371 -0.011924425

arith.constant12 f4 [192]
00000000: 3b6d 2d3e 755d e33d aaf2 963c e379 2ebd
00000010: 4bc9 ebbd 17d6 1cbd bc5a 2cbe ddda 9e3d
00000020: 79e5 293e 12db 46be 6ea4 df3d 3f17 89ba
00000030: 231b 223e 6787 8fbd 24db 4f3d 7450 0ebe
00000040: bf99 0e3e 3adb 293d 2ad6 603d 4cf6 ffbd
00000050: a23f 8dbd f98e 19be ceca 653d 0a35 f2bd
00000060: 534e b53c 37e2 48bc f0e1 59bd e84a 953d
00000070: edd6 10bc b444 20bd 97e3 923d 1b49 3cbd
00000080: d080 3a3d f8fe b3bd 8a7c d1bd ec0f b23d
00000090: 0a32 6a3c 7224 95bb 3426 db3c 2744 36be
000000a0: a512 edbc ed11 a63c 7d87 4fbe 10c3 23bd
000000b0: 344d 28bc 431e 253d cd26 89be c8a0 06be
000000c0: cda8 cc3c 0b7e 233e 76af a33d f7f8 0ebd
000000d0: f3c9 923d 9611 2c3e 2665 483e 709e 18be
000000e0: ac23 103e c9af 203e 6d4f e8bd 2b13 443e
000000f0: 5c72 c13e 9dbb b43e d50b 913d 29e7 1c3e
00000100: 68a3 40be 5afd 24be b584 43bd b8d2 043e
00000110: 4588 953d 0453 c63a 9585 4a3c e6ba bc3d
00000120: ee12 403c 530d 25bd b8af 9bbc a49e c33d
00000130: 7211 113e d391 3cbd 5486 b6bd cfca 883d
00000140: 9e01 2d3d 3d7b 5ebc 5e2f 833c 4cc6 41bd
00000150: fc0c abbd 11b0 063e 5b17 003d 87ac bfbd
00000160: 1a8b d93c 4f71 243d 4983 673e 616a a9bd
00000170: 0c6e ea3a 10fb 023e a783 e93d f78e 4cbe
00000180: 15c2 873e 661b 79be 6ca8 7d3d fdbe be3d
00000190: 040f 853d 29ed 063e 0fba 83bc e6e9 bcbc
000001a0: 39e3 723e 0746 5a3c 38dd e4bd c0d8 06be
000001b0: 39fc 673c 84a9 493d 08e1 353d 1075 6b3d
000001c0: d041 8d3c 76b8 b23d 2d5d ccbd e21e e3bd
000001d0: f857 653d 0a19 eebd 7204 30bd eda8 7cbd
000001e0: 84dc bcbd b76f 9f3d f181 e1bd dd5b b2bc
000001f0: 059c ebba 9d12 463e b76b a3bc f21e 283e
00000200: 3609 64bd f569 173d ebfe 423e 4e8e 7ebd
00000210: db8d f4bc 6d37 4bbd 48ed 25be 1c63 27be
00000220: b6ee 9c3b 00f6 9abd 4707 96bd a7f3 96bc
00000230: bdc0 6ebd 93da 6b3d ba28 0fbe c548 51bd
00000240: 1ccc 9dbe 5017 88be e730 7b3e 7bbe a1bd
00000250: 35a9 24bd 8dc4 0ebe a6a4 a1be d608 173d
00000260: 0350 d0bd 52c9 2dbe 8f9c 0e3e 1ef9 5abd
00000270: ef66 533e b494 76be a321 71be 46ed 253e
00000280: cbd2 26bd ef92 893d fbad 523e 1b21 173e
00000290: 2ee0 c6bd bf7e 10b8 0762 bb3c 8c98 803d
000002a0: d8cc bf3d 60ad 16be b21b c63d f77d 6c3e
000002b0: 6e6a 43bd ff91 6abe f828 d0b9 106e dd3c
000002c0: 56f9 ad3c 218d 83be 724e ccbd 78cd 4d3e
000002d0: 3c2e 8c3d c602 3d3e a31e e2bd 7d39 c93c
000002e0: cfdb 6cbc 86a7 b4bd f46b b0be 959b 94bd
000002f0: aaeb 003d b18f 593b c681 f6bd 167f aa3c
0.169362 0.1110181 0.018426258 -0.04259671 -0.11513003 -0.03829011 -0.16831487 0.077565886
0.16591443 -0.19419506 0.10920034 -0.0010459198 0.15830664 -0.07008248 0.0507461 -0.13897878
0.13925837 0.041468836 0.054891743 -0.12498149 -0.068969026 -0.14995946 0.056101613 -0.11826523
0.022132074 -0.012260965 -0.053193986 0.07289678 -0.008840305 -0.03912802 0.071723156 -0.045968156
0.045533 -0.08788866 -0.10228832 0.08694443 0.014294157 -0.0045514638 0.026751615 -0.17799436
-0.028939554 0.02027222 -0.20266528 -0.039980948 -0.010272313 0.040312063 -0.26787415 -0.1314727
0.024982834 0.1596605 0.07992451 -0.0349054 0.07167425 0.16803584 0.19569835 -0.14904189
0.14076108 0.15692057 -0.11343274 0.19147937 0.37782562 0.35299388 0.07082335 0.15322556
-0.18812335 -0.16112271 -0.04773398 0.12971008 0.07301382 0.0015130942 0.01236095 0.092153355
0.011723263 -0.04029591 -0.019004688 0.09551743 0.14166811 -0.046037506 -0.0891234 0.06679308
0.04223787 -0.013579187 0.016013797 -0.04730825 -0.08352086 0.13153102 0.031272274 -0.09359079
0.026555587 0.040147122 0.22608675 -0.08272243 0.001788558 0.12791085 0.11402064 -0.19976412
0.2651526 -0.24326858 0.061928198 0.09313772 0.06497005 0.13176407 -0.01607993 -0.02306075
0.23719491 0.01332236 -0.11175007 -0.13168621 0.014159256 0.04923393 0.04440406 0.057484686
0.017243296 0.087265894 -0.09978709 -0.11089875 0.055992097 -0.116258696 -0.04297299 -0.061684538
-0.092217475 0.0778498 -0.110111125 -0.02177232 -0.0017975575 0.19343038 -0.019948823 0.16418055
-0.055672847 0.036966283 0.19042556 -0.06214743 -0.029852798 -0.049613405 -0.16203797 -0.16346401
0.0047891987 -0.07566452 -0.07325607 -0.01842673 -0.05828928 0.057581495 -0.1398038 -0.05109479
-0.30819786 -0.26580286 0.24530374 -0.078976594 -0.04020043 -0.13942166 -0.3157093 0.03687366
-0.10171511 -0.16971329 0.1392691 -0.053460233 0.20644735 -0.24080163 -0.23547988 0.16203794
-0.04072837 0.067174785 0.20574181 0.14758722 -0.09710728 -3.4450317e-05 0.022873892 0.06279096
0.09365243 -0.14714575 0.09673251 0.23094927 -0.04770892 -0.22907256 -0.00039703376 0.027030021
0.021237057 -0.2569361 -0.099759 0.20097911 0.06844756 0.18458089 -0.11041 0.024563545
-0.014456703 -0.08821015 -0.34457362 -0.072562374 0.031474747 0.003319722 -0.12036471 0.020812552

arith.constant13 f4 [64]
00000000: 8756 153d f9b5 753e aa54 883d b220 9ebc
00000010: 8782 f73d d0a0 833e 97b0 c5bd f340 44bd
00000020: bedf 27be 21e1 a63c 91ea 29be dbb5 9fba
00000030: 84f3 6cbe 7ed3 2ebe 92f0 1b3e 5a96 9c3c
00000040: 2efe 913e 93aa 6bbd 307c 0ebe bbb9 03be
00000050: 3b46 7f3e c032 8d3d f3a0 483d 2a6f 26be
00000060: cbe2 5a3e bc57 823e eb04 2c3e 29c7 163d
00000070: dd05 27be dbf3 2bbc f6b4 a8bd 93ae f0bd
00000080: 7297 e63d b1ee b7bd 3c7a 443e 87b5 73be
00000090: 1ea4 6cbe 6dc8 9f3d 21e5 653e 1e76 2dbe
000000a0: 4819 dbbd 2fbb 20be e29f d8bc 207f 203e
000000b0: fd63 20be 3a03 a53d ea9e b73c 8e54 c03d
000000c0: 2ca5 863e 3fd2 193e 6956 9bbd efbb 1b3c
000000d0: e446 563e d796 f33d 3676 dabd e0e9 77bd
000000e0: d561 e03d d221 c83d 2339 303e ebee ca3d
000000f0: 1ede 7f3d a979 7abc d6ab 433e 1f68 80bd
0.036459472 0.23995198 0.066567734 -0.0193027 0.12085443 0.25708628 -0.096528225 -0.047913503
-0.16393945 0.020371022 -0.16593386 -0.0012184934 -0.23139769 -0.17072865 0.15228489 0.019114662
0.28514236 -0.05753572 -0.13914561 -0.1286382 0.24929135 0.068944454 0.048981618 -0.16253343
0.21375577 0.2545756 0.16798751 0.036811028 -0.1631083 -0.010495151 -0.082376406 -0.117520474
0.11259355 -0.08981074 0.19187254 -0.23799716 -0.2310948 0.078019 0.22450687 -0.1693959
-0.106981814 -0.15696405 -0.026443426 0.15673494 -0.15663143 0.08057256 0.022414643 0.093911275
0.2629789 0.15021609 -0.07584841 0.009505256 0.2092548 0.11894005 -0.10667078 -0.060525775
0.1095616 0.09772076 0.17209296 0.09908851 0.062467687 -0.015287795 0.19108519 -0.062698595

arith.constant14 f4 [64, 128]
00000000: c5f9 763c 8b9e 9dbd d05e 4bbd 4f1d 893d
00000010: 211e 2abd 5a81 92bc 7483 40bc 4b89 e8bc
00000020: e571 b43c 27ab ab3c 6e05 47bd c840 b3bc
00000030: 83b9 e2bc 1e6c 433d 9586 b53c d143 96bc
00000040: 926f 143d 9ff7 423d aa74 1dbd d793 613c
00000050: 050b 333d 29a9 f43c fc7e e03b 8b34 69bc
00000060: 4661 363b 0cfb a13c dca7 72bd ca89 2bbd
00000070: 5d22 f23c 046a 133c 7f25 3ebc 27c0 e7bc
00000080: aea7 273d ad2f 9a3b 2cb7 4cbd e921 193d
00000090: 561d 31bc fd7a 1ebd 6e10 67bb e0c1 46bd
000000a0: f66a 4e3d 6698 14bd 2f88 bc3c 1b58 34bb
000000b0: 452b 2ebd 5430 4f3d f0a2 313b aae8 78bb
000000c0: e6d3 c43c aaae 283d 546a 483c f1d8 3f3d
000000d0: 1e4f 613c 92a7 bc3c a365 953d fca0 eebb
000000e0: 9b73 9cbc 4d42 373d fd92 1f3d 3637 8fbc
000000f0: 899c 2abd 392f e53c 85e7 883c de53 083b
00000100: 3bcb ce3c 0d1b 983c 1be1 893c 69c9 893b
00000110: a8c4 3bbb fa2e 673c e923 013c 358e 34bd
00000120: 27a6 b93c c534 1dbd 1f87 8c3d 039f 833c
00000130: 88d8 96bc 76cc 813c 18ff 07bd 15d4 453d
00000140: 46e9 8dbc de14 b23b d81a fa3a b2bc 8a3d
00000150: 7bf8 b83c 95b6 6d3d 88c9 4ebc 0f16 323d
00000160: 32cd 0f3d af48 2b3d f0ef a3bb 9b58 3cbd
00000170: dfea 963d b317 1ebc 552d 14bc 22d2 433c
00000180: 87a6 e13b 11a7 36bb 7751 e4bc 7596 023d
00000190: 143a 02bd 1e61 033d a83d 7bbd 26ea 773c
000001a0: dc9e e63a 3b19 24bd 95b0 1ebd fc16 273c
000001b0: da98 83bc bce1 7fbc 0ffc e5ba 83a5 b83c
000001c0: a87d 8cbc 4377 eb3a 539f 9b3c bd1b 963d
000001d0: a854 493c 88a4 28bc d842 813d f9bf 7e3c
000001e0: dc5f b2bc c01f 033d 9a11 16bd f111 e73c
000001f0: a972 9b3d af29 73ba e06b 59bc b43c e43b
00000200: 29f1 46ba 70d6 85bc eec3 723c 1e61 85bc
00000210: 2bd1 2d3c 4931 aebb e315 4239 0b6f 4bbb
00000220: f83e b8bb e73c 09bb 50d3 b0bc b1f7 863c
00000230: 15fc 2ebb d8b0 b33b b5e8 8f3c 82fa 423d
00000240: c40c 623c 83b3 7d3c da76 28bd 460d 6d3c
00000250: 2d02 cd3c e849 7a3c 58e0 8ebb b9a2 ab3a
00000260: 2a55 f4bc b19d 75bc 2b09 75bc f3d9 a2bc
00000270: d2b3 223c c9ef ca3a 3ed9 26bc 31b7 1e3d
00000280: c037 d1bb a021 76bb 8973 a03c 320c 47bb
00000290: 11ec 933c 2adc 833c f6fd 09bb c039 3fbb
000002a0: 5b34 63bb 0b8d 8a3b 7c9b 9cba 3cee aebc
000002b0: 7698 513d a515 9f3c 5a85 813b 648f 62bc
000002c0: f004 fb3a 80c7 683c 22fa 78bc 63a8 0c3b
000002d0: 3f57 7239 bf63 ed3b e106 9fbc 6d87 263c
000002e0: 9f95 c83b 423d 57bc 5ada 893b 2d3a b13c
000002f0: d393 98bc 85b2 673b 1dc1 c7bb 2fa9 9e39
00000300: 3666 91ba b904 5fbd c3ec 813c 713e dc3a
00000310: fbc0 f0bb 2652 d13b c82c a2bb d868 a73c
00000320: ceff 493b 3d30 703d 575a e83c 7dd6 7a3c
00000330: cb4a cbbb 7a02 8fbb e559 58bc 1ce7 b93c
00000340: 2bbf 003d ba15 cbbc 55c8 79bc c20d 4f3c
00000350: c596 e0ba 67bf 153b 1761 093d ce91 16bc
00000360: 4440 3ebc eb69 f13b 0044 273b ad7e 853d
00000370: 7278 dfbc 0a3f 03bd c7eb 853c b3f7 b5b9
00000380: dd82 8b3a be3e c639 ed6c 98bb b856 b139
00000390: e0f5 8e3b 9685 0d3d b9c8 80bc 2866 f5ba
000003a0: abb5 41bb 5ca6 00bc 9fd0 553d dc61 9c3b
000003b0: e2d5 eebc a9d7 d2ba 9da9 313d 16ad 943c
000003c0: 7754 cfbc 984c 7db9 2418 963c 7ce5 72bc
000003d0: 164e 223c 382c 90bc 2d39 df3a 510d 03bc
000003e0: d7a4 a93c 4d95 103c 88bd be3c a908 39bc
000003f0: 2bfd 223c ec7e 433c f581 77bc ae0c 9a3b
0.015074198 -0.07696255 -0.049650967 0.06695043 -0.04153264 -0.017883945 -0.011750091 -0.028385779
0.022026965 0.020955635 -0.048589163 -0.021881476 -0.02767635 0.04771053 0.0221589 -0.018342884
0.036239214 0.04759943 -0.038441338 0.013768158 0.04371168 0.029865818 0.006851075 -0.014233719
0.0027828976 0.019773029 -0.059242114 -0.041879453 0.029557401 0.008997444 -0.011605619 -0.028289868
0.040931396 0.0047053904 -0.049979374 0.037385855 -0.010810217 -0.03869151 -0.0035257596 -0.048524737
0.050394975 -0.03627815 0.023014156 -0.0027518335 -0.042521734 0.0505832 0.0027105175 -0.0037980475
0.024026822 0.041182198 0.012232382 0.04683775 0.013751773 0.023029123 0.07294776 -0.0072823744
-0.019098094 0.044740964 0.03895854 -0.017482381 -0.04165319 0.02797662 0.01671196 0.0020801942
0.025243392 0.018567586 0.016830971 0.004204918 -0.0028651152 0.014110321 0.007882097 -0.04408093
0.022662235 -0.038380403 0.0686171 0.016067034 -0.018413797 0.015844565 -0.03320226 0.04829796
-0.017323148 0.0054346165 0.0019081486 0.06774272 0.022579422 0.058035452 -0.012621291 0.043478068
0.0351078 0.041817363 -0.005002968 -0.04598294 0.07369017 -0.009649205 -0.009044011 0.011951955
0.0068863067 -0.0027870575 -0.027870877 0.03188177 -0.03179367 0.03207504 -0.061338097 0.015131509
0.0017594951 -0.040063124 -0.03874262 0.010198351 -0.016064096 -0.015617784 -0.0017546433 0.02253986
-0.017149761 0.001796462 0.01899687 0.073295094 0.01228825 -0.010293134 0.063115776 0.0155487
-0.021774225 0.0320127 -0.03663788 0.028206797 0.07590229 -0.00092759257 -0.013270348 0.006965244
-0.0007589036 -0.016337603 0.014817221 -0.01628166 0.010608952 -0.005315934 0.00018509435 -0.0031041529
-0.005622741 -0.0020940842 -0.021585137 0.01647553 -0.0026700546 0.005483728 0.017567018 0.047602184
0.013796989 0.015484693 -0.04112897 0.014468497 0.025025452 0.01527641 -0.00436024 0.001309476
-0.029825766 -0.01499121 -0.014955799 -0.019879317 0.009930568 0.0015482838 -0.0101836305 0.038748924
-0.0063848197 -0.0037556663 0.019586341 -0.003037226 0.018056901 0.016096193 -0.0021055914 -0.0029178709
-0.0034668657 0.0042282394 -0.0011948193 -0.021353833 0.05117079 0.0194195 0.0039526643 -0.013828132
0.0019151252 0.014207721 -0.015196355 0.002146267 0.0002311142 0.0072445567 -0.01941246 0.010164124
0.006121352 -0.013137164 0.0042069377 0.021634186 -0.018625176 0.0035354209 -0.006096019 0.0003026216
-0.0011093083 -0.054447863 0.015859967 0.0016803277 -0.007347224 0.0063879667 -0.004949186 0.020435736
0.0030822637 0.058639754 0.02836339 0.015309927 -0.0062039844 -0.004364309 -0.013205026 0.02269321
0.031432312 -0.024790633 -0.015245517 0.012637557 -0.0017134777 0.002284968 0.033539858 -0.009190036
-0.011612002 0.0073673627 0.002552271 0.06518302 -0.027279112 -0.03204254 0.016347779 -0.0003470756
0.0010643859 0.0003781225 -0.004651657 0.0003382468 0.0043628067 0.034551226 -0.015720712 -0.0018722462
-0.0029557745 -0.007852163 0.05220091 0.004772408 -0.029154722 -0.0016086 0.043374646 0.01814894
-0.02530883 -0.00024156494 0.018322058 -0.014825221 0.009906312 -0.01759921 0.001703059 -0.00799878
0.020708485 0.008824659 0.023283735 -0.011293569 0.009948055 0.011932116 -0.015106668 0.0047012186
